model/model_city.bin (torch, 274263 bytes, 6 tensors)

linear1.weight f4 [256, 4]
0	0xbe306b98	-0.17228544
1	0xbe9c082f	-0.30474994
2	0xbe883f06	-0.26610583
3	0xbd9a1d98	-0.07525176
4	0xbdf81a6a	-0.12114413
5	0xbe7bee7d	-0.24602695
6	0xbf616489	-0.8804403
7	0xbec5d42f	-0.38638446
8	0xbe66bd98	-0.22533262
9	0xbf095c3c	-0.53656363
10	0xbedcd9bb	-0.43134865
11	0x3cf91a00	0.030407906
12	0xbf0bf6b2	-0.546733
13	0xbeb7823e	-0.35841554
14	0xbde307ec	-0.11085495
15	0xbe926924	-0.2859584
16	0x3bb2d080	0.005456984
17	0xbd7ad410	-0.061237395
18	0xbe66c134	-0.22534639
19	0xbe15d8d0	-0.14633489
20	0xbed4ca9e	-0.41560835
21	0xbf6dbafd	-0.92863446
22	0xbfe663d6	-1.7999218
23	0xbe7bc2fc	-0.245861
24	0xbed2ecd7	-0.4119632
25	0xbebc755a	-0.36808282
26	0xbf8c42af	-1.095785
27	0xbe492ab9	-0.19645204
28	0xbd4c0cd8	-0.049816936
29	0xbf55b9ca	-0.83486617
30	0xbf60884e	-0.87707984
31	0x3e32124d	0.17389794
32	0xbea6441a	-0.32473832
33	0xbebec392	-0.37258583
34	0xbf1907d6	-0.5977758
35	0xbd51d920	-0.051232457
36	0xbf080185	-0.5312732
37	0xbfdc535c	-1.7212939
38	0xbf8f100e	-1.1176775
39	0xbeb923c8	-0.3616011
40	0x40c057e4	6.010729
41	0xbdc0d838	-0.094162405
42	0xbe7dec51	-0.24797179
43	0xc0d08f83	-6.5175185
44	0xbef2bf63	-0.4741164
45	0xbdd9c595	-0.10633389
46	0xbe5a3b48	-0.21311677
47	0x3cfd6060	0.030929744
48	0xbd88d9a8	-0.0668214
49	0xc01a4acd	-2.4108155
50	0xc00b0be0	-2.1725998
51	0xbfd103c9	-1.632928
52	0xbde2baba	-0.110707715
53	0xbec64206	-0.38722247
54	0xbf0101a2	-0.50393116
55	0xbefcee46	-0.49400538
56	0xbe9465d4	-0.2898394
57	0xbf255f9c	-0.64599013
58	0xbd739529	-0.059468422
59	0xbeb3cafe	-0.35115808
60	0xc029af88	-2.6513386
61	0xbf47250a	-0.7779089
62	0xbe630b88	-0.22172368
63	0xbe7d1a5c	-0.24717087
64	0xbdba33f8	-0.090919435
65	0xbeade556	-0.33964032
66	0xbede8676	-0.4346196
67	0x3ce04bc0	0.02737987
68	0xbecb4aa7	-0.39705393
69	0xbe9372e6	-0.28798598
70	0xbf5b7b12	-0.85734665
71	0xbea9bec2	-0.3315335
72	0xbea22590	-0.31669283
73	0xbf156082	-0.58350384
74	0xbf3c4392	-0.73540604
75	0x3e9117d4	0.28338492
76	0xbb345600	-0.002751708
77	0xbec6eb5d	-0.38851443
78	0xbe9f86f2	-0.31157643
79	0xbe8af76a	-0.27141887
80	0xbe7a5274	-0.24445516
81	0xbc4235ba	-0.01185363
82	0xbf25dec3	-0.6479303
83	0xbcd47580	-0.025934935
84	0xbe619b24	-0.22031838
85	0xc0027b1b	-2.0387638
86	0xbf5f9eb6	-0.8735155
87	0xbe566e09	-0.20940413
88	0x40db163e	6.846465
89	0xc111391b	-9.076442
90	0xc04502d6	-3.078298
91	0x40431ba0	3.048561
92	0xbec52ac8	-0.38509202
93	0xbee7e428	-0.45291257
94	0xbf494fe6	-0.7863754
95	0xbec0fb9a	-0.37691957
96	0xbf2b827d	-0.66995984
97	0xbe9d0c18	-0.3067329
98	0xbe4bcc9f	-0.19902276
99	0xbd884df7	-0.066554956
100	0xbed7324a	-0.42030555
101	0xbf1220dd	-0.57081395
102	0xbd938ddf	-0.07204794
103	0xbe47eda4	-0.19524246
104	0xbf7c5c2d	-0.9857815
105	0xbf98d0e6	-1.1938751
106	0xbf431128	-0.76198053
107	0xbeb19d8f	-0.3469052
108	0xbea50be2	-0.32235628
109	0xbeb3b212	-0.35096794
110	0xbee4d24b	-0.4469169
111	0xbedcc820	-0.43121433
112	0xbd8a71e0	-0.06760001
113	0xbf3fda03	-0.74942034
114	0xbe7381bf	-0.23779963
115	0xbeada34c	-0.33913648
116	0xbf456320	-0.7710438
117	0xbf020e32	-0.5080291
118	0xbfb272cc	-1.3941283
119	0xbf2c7300	-0.67362976
120	0xbfeafb22	-1.835789
121	0xc0121cee	-2.2830157
122	0xbe9bb0a5	-0.30408207
123	0xbfbd840b	-1.4805921
124	0xbc3c1540	-0.011479676
125	0xbe89ed92	-0.26939064
126	0xbef373be	-0.47549242
127	0xbe6ca92c	-0.23111409
128	0xbe9fc4ae	-0.31204742
129	0xbef1fa18	-0.4726112
130	0xbe019204	-0.12653357
131	0xbe348abc	-0.17631048
132	0xbedf6dcb	-0.43638453
133	0xbfd0fcde	-1.6327169
134	0xbf93e733	-1.1554931
135	0xbccaef45	-0.024772296
136	0xbe256d43	-0.16154961
137	0xbecf9953	-0.40546665
138	0xbf7088ed	-0.9395893
139	0xbed5d8de	-0.4176702
140	0xbed9741c	-0.42471397
141	0xbf0d4bdc	-0.5519388
142	0xbe828308	-0.25490594
143	0xbe0f5c98	-0.14000165
144	0xbe97bc7e	-0.29635996
145	0xbda216c8	-0.079145014
146	0xbe8ebec8	-0.2787993
147	0xbb259800	-0.00252676
148	0x3ed04044	0.4067403
149	0xbf8b822e	-1.0899103
150	0xbe2d652e	-0.16933128
151	0xbe947538	-0.2899568
152	0xbeefe4b4	-0.46854174
153	0xbeb2e63f	-0.3494129
154	0xbf1d768a	-0.61509
155	0xbe96a411	-0.29422048
156	0xbf816d99	-1.0111572
157	0xbe9b8adb	-0.30379376
158	0x3dba12a5	0.090855874
159	0x3db4017b	0.08789345
160	0xbfbb3b44	-1.4627461
161	0xbfd52a31	-1.6653501
162	0xc010affd	-2.2607415
163	0xbfb72df4	-1.4310899
164	0xbe4a882c	-0.19778508
165	0xbea27505	-0.31729904
166	0xbf1ee8ee	-0.6207417
167	0xbeeb8d4e	-0.46006244
168	0xbeed7d32	-0.4638458
169	0xbe47692b	-0.19473712
170	0xbd8ef298	-0.06979865
171	0xbeef7a16	-0.46772832
172	0xbead0ee4	-0.33800423
173	0xbda93a20	-0.082630396
174	0xbec66148	-0.38746095
175	0xbdf14cb8	-0.11782211
176	0x3f93207b	1.1494287
177	0xc0201b1b	-2.5016544
178	0xbf8999b2	-1.0750029
179	0xbfa97510	-1.323885
180	0xbf1d24c0	-0.613842
181	0xbdff1cfb	-0.124566995
182	0xbf77de11	-0.9682322
183	0xbee1f0d2	-0.44129044
184	0xbfddf9a5	-1.734181
185	0xc069f78f	-3.6557348
186	0xbf98352b	-1.1891226
187	0xc015c799	-2.3403075
188	0xbfad2fdb	-1.3530229
189	0xbf045bdc	-0.51702666
190	0xbfeb4d83	-1.838303
191	0xbfabd3c3	-1.3424
192	0xc01cb848	-2.4487476
193	0xbe09bb3c	-0.1345033
194	0xbe25f78b	-0.16207711
195	0x40b8b558	5.7721367
196	0xbd845fa0	-0.064635515
197	0xbe8878ac	-0.26654565
198	0xbf4d615e	-0.80226696
199	0xbe4837f4	-0.19552594
200	0xc06337f3	-3.5502899
201	0x402c64b1	2.6936457
202	0x3f1dc3f7	0.61627144
203	0x3f00fe86	0.5038837
204	0xbff0c126	-1.8808944
205	0xc007981d	-2.1186593
206	0xbe933f57	-0.28759262
207	0xbfe49564	-1.785809
208	0xbef61968	-0.48066258
209	0xbd95d090	-0.07315171
210	0xbeb664d8	-0.35623813
211	0xbeab6cbf	-0.33481404
212	0xbfc81804	-1.5632329
213	0xbfe4cedd	-1.787563
214	0xc004c302	-2.0744023
215	0xbface64b	-1.350778
216	0xbc4bea40	-0.012445986
217	0xbe5ca2f0	-0.2154653
218	0x3cf87e40	0.030333638
219	0xbec4731b	-0.38369069
220	0x3d3f73e0	0.046741366
221	0xbf5d42db	-0.8643014
222	0xbde6e214	-0.1127359
223	0xbe409264	-0.18805844
224	0xbf1d7d7e	-0.6151961
225	0xc020a36f	-2.5099752
226	0xc01649a0	-2.3482437
227	0xbf59610e	-0.8491372
228	0xc0471d9f	-3.111183
229	0xbff4431e	-1.9082983
230	0xc0098054	-2.1484575
231	0xc02da5d1	-2.7132456
232	0xbf05b2fd	-0.5222624
233	0xbe8c9101	-0.2745438
234	0xbf0f7cfc	-0.56050086
235	0xbec30cbc	-0.38095653
236	0xbe19af34	-0.15008241
237	0xbeed0423	-0.4629222
238	0xbf0ee86e	-0.5582341
239	0xbefeaa48	-0.4973929
240	0xbea53de7	-0.3227379
241	0xc00c2856	-2.189962
242	0xbf656292	-0.8960353
243	0xbf01aebf	-0.50657266
244	0xbd8ded30	-0.069300056
245	0xbe88d060	-0.26721478
246	0xbee9ddd2	-0.45677048
247	0x3c095e00	0.008384228
248	0xbfb9e900	-1.4524231
249	0xc01652a5	-2.3487942
250	0xbf7e2a88	-0.9928365
251	0xbfd251ad	-1.6431175
252	0xbe27a468	-0.1637131
253	0xbec22e06	-0.37925738
254	0xbe9c000a	-0.3046878
255	0xbd9bb0e8	-0.076021016

linear1.bias f4 [256]
0	0xbf46d7ab	-0.77672833
1	0xbf992449	-1.1964198
2	0xbeebe615	-0.46073976
3	0xbeac426d	-0.3364443
4	0xbee9f32c	-0.45693338
5	0xbf94e18f	-1.1631335
6	0xbf939ecd	-1.1532837
7	0xc0552df4	-3.3309298
8	0xbee4534c	-0.445948
9	0xc0877d18	-4.23402
10	0xc1819aef	-16.200651
11	0xbf44ca76	-0.7687143
12	0xc0392347	-2.8927782
13	0xbf274667	-0.653418
14	0xbf099527	-0.53743213
15	0xbf9c7720	-1.2223854
16	0xbea7bc70	-0.32760954
17	0xbfa5bc12	-1.294802
18	0xc02db7c8	-2.714342
19	0xbf1c9c74	-0.6117623
20	0xbeb6246c	-0.35574663
21	0xbfc7638c	-1.5577254
22	0x40a1eafa	5.0599337
23	0xbf8cd13c	-1.1001353
24	0xc05e430b	-3.472842
25	0xbeffeabe	-0.49983782
26	0xbfc6f363	-1.5543026
27	0xbf7aaf29	-0.97923523
28	0xbe8c64ae	-0.27420563
29	0xc0845078	-4.134823
30	0xc02d3540	-2.7063751
31	0xbe675738	-0.22591865
32	0xbedb2231	-0.42799523
33	0xc08a1d17	-4.316051
34	0xbe8247e4	-0.25445473
35	0xbec25b69	-0.37960365
36	0xbd9a3228	-0.07529098
37	0xc09d3dff	-4.913818
38	0xbefe1eea	-0.4963296
39	0xc00e23f0	-2.2209435
40	0xbf976b41	-1.1829606
41	0xbe765129	-0.24054398
42	0xbf501ccb	-0.81293935
43	0xbe98effc	-0.29870594
44	0xc0e83380	-7.2562866
45	0xc085976a	-4.174733
46	0xc01c3209	-2.440554
47	0xbfed17ca	-1.8522885
48	0xc10a330f	-8.6374655
49	0xbf8b1133	-1.0864624
50	0xc180c1fe	-16.094723
51	0xc033023e	-2.7970119
52	0xbf5e87af	-0.86925787
53	0xc00e31b1	-2.221783
54	0xbedb90c8	-0.42883897
55	0xbf0c5d2c	-0.5482967
56	0xbf086175	-0.5327371
57	0xc05ac536	-3.4182868
58	0xbf80631f	-1.0030249
59	0xbefdeab5	-0.4959313
60	0xbfff039f	-1.992298
61	0xbf20dceb	-0.62837094
62	0xc032577b	-2.7865894
63	0xbec218ad	-0.3790945
64	0xc05971d5	-3.3975728
65	0xc07bb31d	-3.9328072
66	0xbe933a9d	-0.28755656
67	0xc0542f8f	-3.3154027
68	0xbf022511	-0.5083781
69	0xc01567b3	-2.3344543
70	0xbfb8748f	-1.4410571
71	0xbeff0ab4	-0.49812853
72	0xbec16204	-0.37770092
73	0xc05e4636	-3.4730353
74	0xbee7e7d7	-0.45294067
75	0xbf7f13e4	-0.99639726
76	0xbe504378	-0.20338237
77	0xc0be5408	-5.9477577
78	0xbfc92c27	-1.5716599
79	0xbf020d43	-0.50801486
80	0xbeec1dd8	-0.4611652
81	0xc01eff1d	-2.4843209
82	0xbeced3b1	-0.40395883
83	0xbf7978e2	-0.9745008
84	0xc081b92c	-4.053854
85	0xbf2c4923	-0.672991
86	0xbe989156	-0.29798383
87	0xbf12ee1f	-0.57394594
88	0xc0656f47	-3.5849168
89	0xc0449a23	-3.0719078
90	0xbf539ed8	-0.8266425
91	0xbebcb064	-0.36853325
92	0xbeb9a090	-0.36255312
93	0xbf3240e2	-0.69630253
94	0xbf47af56	-0.78001916
95	0xbec58494	-0.38577712
96	0xc07c145c	-3.9387426
97	0xc00a03e9	-2.1564887
98	0xbff7e64b	-1.9367155
99	0xbe8ef077	-0.27917835
100	0xbf501d9f	-0.812952
101	0xc0996987	-4.7941318
102	0xc01c79b3	-2.444928
103	0xc090c725	-4.5243096
104	0xbf069d2f	-0.52583593
105	0xc025c8ba	-2.5903764
106	0xbf1b968c	-0.6077659
107	0xbed7e0e4	-0.42163765
108	0xbf398196	-0.7246336
109	0xbee9d64f	-0.45671317
110	0xc050ecfe	-3.2644649
111	0xbfa03b3a	-1.2518075
112	0xbfcc18fd	-1.5945126
113	0xbeb1b27c	-0.34706485
114	0xbe8c21ac	-0.2736944
115	0xbfd5f246	-1.6714561
116	0xc0f75f25	-7.7303643
117	0xbe95fa94	-0.29292738
118	0xbf501669	-0.81284195
119	0xbf924a21	-1.1428872
120	0xc05df5b4	-3.4681215
121	0xc18e6b14	-17.802284
122	0xbe929bca	-0.28634483
123	0xbef87f96	-0.4853484
124	0xbe835bbe	-0.2565593
125	0xbf78b976	-0.9715799
126	0xbf9a1daf	-1.2040309
127	0xbf3cf3e8	-0.7380967
128	0xc12bab43	-10.729312
129	0xc06023e1	-3.5021899
130	0xc14169ce	-12.088331
131	0xbf4acf4d	-0.79222566
132	0xbf49751d	-0.78694326
133	0xc112ffd7	-9.187461
134	0xbef13bf2	-0.47116047
135	0xbf29e132	-0.66359246
136	0xbf7e6d2f	-0.9938535
137	0xbf16e0ac	-0.5893657
138	0xbfd6794c	-1.6755767
139	0xbe49a4a4	-0.19691712
140	0xbf8c6a00	-1.0969849
141	0xbf55c282	-0.8349992
142	0xc07b3069	-3.9248297
143	0xc109300e	-8.574232
144	0xc08e5209	-4.447514
145	0xbeeffda3	-0.46873197
146	0xc0078098	-2.1172237
147	0xbf0c8930	-0.5489683
148	0xc1078c1f	-8.471709
149	0xbf3516c0	-0.7073784
150	0xbfa3b4a2	-1.27895
151	0xc09078f1	-4.5147634
152	0xc07ac5d7	-3.9183252
153	0xbfb9b482	-1.4508212
154	0xbf11dab1	-0.5697432
155	0xc0c1e6ac	-6.059408
156	0xc0fdca6b	-7.930959
157	0xbfb3e89d	-1.4055363
158	0xbf8e4a4d	-1.1116425
159	0xbe95920d	-0.2921299
160	0xbe922ec3	-0.285513
161	0xc058796d	-3.3824112
162	0xc04b07df	-3.1723554
163	0xbf76d3ec	-0.9641712
164	0xbfb3cfd2	-1.4047797
165	0xc0a35d07	-5.105106
166	0xc15a6a1a	-13.650904
167	0xbffcaa94	-1.9739556
168	0xc07408b5	-3.8130314
169	0xbecde8a1	-0.40216544
170	0xbef71f55	-0.48266092
171	0xbf7e4a85	-0.9933246
172	0xbf7bb2b6	-0.98319566
173	0xc08bfb3f	-4.3744197
174	0xbf8d3582	-1.1031954
175	0xbf804b47	-1.0022973
176	0xbf636175	-0.8882058
177	0xbfead250	-1.8345432
178	0xbf026cb3	-0.5094711
179	0xbeedb890	-0.46429873
180	0xbfad6f4a	-1.3549588
181	0xc1087760	-8.529144
182	0xbe8b78df	-0.27240655
183	0xbe014f30	-0.12627864
184	0xbef53824	-0.47894394
185	0xbfa87d66	-1.3163269
186	0xbfe29a1a	-1.7703278
187	0xc0627468	-3.5383549
188	0xc05dfe22	-3.468636
189	0xbf3d8181	-0.7402573
190	0xc042fcf2	-3.0466886
191	0xbf90e253	-1.1319069
192	0xbf243054	-0.6413624
193	0xbf85c99b	-1.045215
194	0xbf017fe7	-0.5058579
195	0xbf8fb557	-1.1227216
196	0xbfa784eb	-1.3087438
197	0xc1329979	-11.162469
198	0xbf72b9e8	-0.9481492
199	0xc05df5d2	-3.4681287
200	0xc08cbfb3	-4.398401
201	0xbf7b6cf2	-0.9821311
202	0xbfbef810	-1.4919453
203	0xc05a4878	-3.4106731
204	0xc0652af2	-3.5807462
205	0xbedddb38	-0.43331313
206	0xbe9aa109	-0.30200985
207	0xbdda1490	-0.10648453
208	0xc050de4c	-3.263568
209	0xc0e71247	-7.220981
210	0xbf0bf0d8	-0.54664373
211	0xbe86c644	-0.2632314
212	0x4151e108	13.117439
213	0xbf09b3ba	-0.53789866
214	0xbf617bc3	-0.8807947
215	0xc00f5b3e	-2.239944
216	0xbe87827a	-0.26466733
217	0xc0076a1a	-2.115851
218	0xbef6b483	-0.48184595
219	0x4171a8a4	15.103672
220	0xbf1ad276	-0.6047739
221	0xc0085b46	-2.130571
222	0xc05b6669	-3.4281256
223	0xbe7aeb33	-0.24503784
224	0xc1edcff4	-29.72654
225	0xbedee3b8	-0.4353311
226	0xbf463307	-0.7742161
227	0xbfde522b	-1.7368826
228	0xc0a02d27	-5.0055118
229	0xbf4906f9	-0.78526264
230	0xbfb8f9b4	-1.4451203
231	0xc078d2b0	-3.8878593
232	0xbf5c36eb	-0.860213
233	0xbef9f744	-0.4882146
234	0xbf793897	-0.97351974
235	0xbfc797e0	-1.5593224
236	0xbedc5e79	-0.43040827
237	0xc100b120	-8.043243
238	0xbf86654b	-1.0499662
239	0xbf9bf7ee	-1.2185037
240	0xc0731a36	-3.7984748
241	0xbf0b0bad	-0.5431469
242	0xbf259d72	-0.6469337
243	0xbf9d5531	-1.2291623
244	0xbee53068	-0.44763494
245	0xbe5cb1d2	-0.21552208
246	0xbf0d2325	-0.5513175
247	0xbfa1b0f2	-1.2632124
248	0xbf8327a2	-1.024647
249	0xbf9387be	-1.15258
250	0xc058099e	-3.375587
251	0xc05cf0ac	-3.4521894
252	0xbecb40bc	-0.39697826
253	0xbf4b286b	-0.7935855
254	0xbf0e2563	-0.555258
255	0xbfa51bf9	-1.2899162

linear2.weight f4 [256, 256]
0	0x38b25800	8.504093e-05
1	0xbf075f5f	-0.528799
2	0xbeee88ee	-0.46588844
3	0xbef46475	-0.47732893
4	0xbee82cd8	-0.45346713
5	0xbead66b1	-0.3386741
6	0xbd3e2656	-0.04642328
7	0x3d4eba54	0.050470665
8	0xbed312a0	-0.41225147
9	0xbcf863cc	-0.030321024
10	0xbd53fc34	-0.05175419
11	0xbd892f03	-0.0669842
12	0xbec6eb90	-0.38851595
13	0xbd094374	-0.033511594
14	0xbee91145	-0.45520988
15	0xbf0748a2	-0.52845204
16	0x3c163d60	0.009169906
17	0x3ce3347c	0.027734987
18	0xbee7deed	-0.45287266
19	0xbec3043c	-0.38089168
20	0xbef444ff	-0.4770889
21	0xbef8afc1	-0.4857159
22	0xbebb781c	-0.36615074
23	0xbc87cc84	-0.016577013
24	0xbf0b4dd0	-0.5441561
25	0xbede6740	-0.43438148
26	0xbd6afdf8	-0.05737111
27	0x3d39ceea	0.045363344
28	0xbef513fd	-0.47866812
29	0xbee7ffcf	-0.45312354
30	0x3bfb6ef0	0.007673137
31	0x3ce3d4f0	0.027811497
32	0xbef0c982	-0.47028738
33	0xbc6d4f88	-0.014484294
34	0xbefe7dbb	-0.497053
35	0xbedf627f	-0.43629834
36	0x3bc86160	0.0061151236
37	0xbd2f3ed0	-0.042784512
38	0xbeeacdea	-0.45860225
39	0xbf0f7cb1	-0.5604964
40	0x3f1d2eab	0.61399335
41	0xbeea81a4	-0.45802033
42	0xbefab831	-0.48968652
43	0x3caaeef0	0.020865887
44	0xbed81b77	-0.42208454
45	0x3b14fe40	0.0022734553
46	0xbf07248b	-0.52790135
47	0x3ce65780	0.028117895
48	0xbeccb187	-0.39979193
49	0x3f12f7d5	0.5740941
50	0xbd54da30	-0.051965892
51	0xbeeccbee	-0.46249336
52	0xbd6d8994	-0.057992533
53	0x3d4cf67c	0.050039753
54	0xbf02ac13	-0.51043814
55	0xbee8dfd5	-0.4548327
56	0xbd0e7856	-0.03478273
57	0x3f0a048a	0.53913176
58	0x3ca2bfa8	0.01986678
59	0xbee837e7	-0.4535515
60	0xbeb757e7	-0.35809252
61	0x3d50f3d4	0.051013783
62	0xbeb44fee	-0.35217232
63	0xbed11519	-0.4083641
64	0x3d58aa42	0.052896746
65	0xbf04e667	-0.51914066
66	0xbecbbdb1	-0.3979316
67	0xbf012ff0	-0.5046377
68	0xbe98dd56	-0.29856366
69	0xbc002a40	-0.007822573
70	0xbf09bd4d	-0.53804475
71	0xbed11947	-0.40839598
72	0x3d43fc2a	0.047847904
73	0xbf00119c	-0.5002687
74	0xbea6dc40	-0.32589912
75	0x3d211a1a	0.039331533
76	0xbef38cd6	-0.47568387
77	0xbc09a588	-0.008401282
78	0xbefc8bd4	-0.4932543
79	0xbf095b6b	-0.5365512
80	0x3c2bfdf8	0.010497563
81	0xbd3afeb2	-0.045653053
82	0xbefa738f	-0.4891629
83	0xbea117ef	-0.31463572
84	0xbd1a2efc	-0.037642464
85	0xbe89ef4c	-0.26940382
86	0xbefb409b	-0.49072728
87	0xbef06f74	-0.46960032
88	0xbbbc84d0	-0.005753137
89	0xbefd6471	-0.49490693
90	0xbca7cffc	-0.020484917
91	0xbeea8bd6	-0.4580981
92	0x3c9f1f28	0.019424036
93	0xbf0a2cd3	-0.53974646
94	0xbe882627	-0.26591608
95	0x3d5fed00	0.05466938
96	0xbf0bc6ac	-0.54600024
97	0x3d1d871a	0.03845892
98	0xbeb5acdf	-0.35483453
99	0xbeeb8739	-0.46001604
100	0xbab675c0	-0.001392059
101	0xbef451c7	-0.4771864
102	0xbec562ab	-0.3855184
103	0xbf0c5195	-0.54811984
104	0xbef192a0	-0.47182178
105	0xbc951a34	-0.018200971
106	0xbeef5857	-0.46747085
107	0xbec6d86d	-0.38836995
108	0xbe57e99f	-0.21085213
109	0xbed98256	-0.4248225
110	0xbe6b67f4	-0.22988874
111	0xbd4e9ac0	-0.05044055
112	0xbd5d5ec8	-0.05404547
113	0x3d59901a	0.05311594
114	0xbed3c07d	-0.41357794
115	0x3d47bab6	0.048762046
116	0xbf0afe2a	-0.54294074
117	0x3c7760c8	0.015098758
118	0x3b5861e0	0.0033017322
119	0x3f1b63e2	0.60699284
120	0x3d6e08f4	0.058114007
121	0x3d042fa8	0.03227201
122	0xbecb4d9f	-0.39707658
123	0xbef93136	-0.48670357
124	0xbed7487c	-0.4204749
125	0x3f098e03	0.5373232
126	0xbd788346	-0.060672067
127	0xbe88825a	-0.2666195
128	0x3c181780	0.009282947
129	0x3f235f7f	0.6381759
130	0xbc0728f0	-0.008249506
131	0x3f0d8186	0.5527576
132	0xbcf049b0	-0.029332012
133	0xbf061362	-0.52373326
134	0x3c8a4400	0.016878128
135	0xbe3ef9d0	-0.18649983
136	0xbed8b729	-0.4232724
137	0xbef8888a	-0.4854167
138	0xbcf548d8	-0.029941961
139	0x3d340944	0.04395415
140	0xbef9ae23	-0.48765668
141	0x3f061664	0.52377915
142	0xbd7612a4	-0.06007637
143	0xbee94587	-0.45560858
144	0xbf104db4	-0.56368566
145	0xbec5ada2	-0.38609034
146	0x3efbd5cf	0.4918656
147	0xbef331bc	-0.47498882
148	0xbef1a51c	-0.4719628
149	0x3f078375	0.5293496
150	0xbe3772e4	-0.17914921
151	0xbf0f54ef	-0.55988973
152	0xbeea46e0	-0.45757198
153	0xbedc2e0f	-0.4300389
154	0xbf06b6ea	-0.52622855
155	0x3f1ccd6a	0.61250937
156	0xbefc2cf3	-0.49253044
157	0x3cc7dde8	0.024397805
158	0xbf08a526	-0.53376997
159	0xbecc30f3	-0.39881095
160	0xbec62073	-0.38696632
161	0x3d0f9072	0.035049863
162	0xbef3d869	-0.47626045
163	0xbc727cd8	-0.014800273
164	0xbedf358a	-0.43595535
165	0xbe727268	-0.23676455
166	0xbef4a3e0	-0.47781277
167	0xbee65148	-0.44983888
168	0xbcedb9bc	-0.02901923
169	0xbef58f67	-0.4796097
170	0xbef501e9	-0.4785302
171	0x3d5cd0d4	0.05391009
172	0xbee7b572	-0.4525562
173	0xbee9f1a1	-0.4569216
174	0x3f0d2153	0.55128974
175	0x3f22ed6d	0.63643533
176	0xbb84f280	-0.0040572286
177	0xbeec63e9	-0.46169975
178	0xbf00ed6f	-0.50362295
179	0xbed796d4	-0.4210726
180	0xbe90cde8	-0.28282094
181	0xbe30f917	-0.1728252
182	0xbed8020a	-0.42189056
183	0x3d178922	0.036996014
184	0xbecedac1	-0.4040127
185	0x3f143535	0.5789369
186	0x3d1b25ea	0.037877955
187	0xbeefbcbf	-0.4682369
188	0xbf073846	-0.5282024
189	0x3c449b30	0.01199989
190	0xbefb2b46	-0.49056453
191	0xbe8deaca	-0.27718192
192	0xbef7c389	-0.4839137
193	0xbed15562	-0.40885454
194	0xbf0264ae	-0.50934875
195	0xbd004046	-0.031311296
196	0xbd76fd5c	-0.060300216
197	0xbef75509	-0.48307064
198	0xbee51a70	-0.44746733
199	0xbd1b81ac	-0.03796546
200	0x3abfa640	0.001462169
201	0xbeb44964	-0.35212243
202	0xbefff791	-0.49993566
203	0xbeedcb40	-0.4644413
204	0x3f126e6f	0.5719976
205	0xbedcf5d0	-0.4315629
206	0xbee8af1b	-0.45446095
207	0xbc3feb18	-0.011713766
208	0xbf031a73	-0.51212233
209	0xbcda6960	-0.026661575
210	0x3f12cfc3	0.5734827
211	0xbef0acc9	-0.47006825
212	0x3ccbf660	0.024897754
213	0x3f1dc9ab	0.61635846
214	0x3f1b5669	0.60678726
215	0xbd200528	-0.039067417
216	0xbed036d5	-0.40666834
217	0x3c33ffc8	0.010986276
218	0xbefe4bc3	-0.49667177
219	0xbec7e5f6	-0.39042634
220	0xbeec1dd9	-0.46116522
221	0xbf031ba5	-0.5121406
222	0xbf081b92	-0.5316707
223	0xbede83a3	-0.43459806
224	0x3b8fca00	0.004388094
225	0xbd141b02	-0.03615857
226	0xbefaa7c1	-0.4895611
227	0x3d641a82	0.055689342
228	0xbef79d48	-0.48362184
229	0xbea1422c	-0.31495798
230	0xbbef16b0	-0.0072964057
231	0x3bc504e0	0.006012544
232	0x3eff4368	0.49856114
233	0xbed48454	-0.41507208
234	0xbc8dc338	-0.017305002
235	0xbefbfe90	-0.49217653
236	0xbedf495a	-0.4361065
237	0xbef35b3c	-0.47530544
238	0x3f13e7c3	0.57775515
239	0x3d66a3c4	0.056308523
240	0x3cf7e604	0.030261047
241	0x3f19c072	0.60059273
242	0xbef67844	-0.4813863
243	0x3f0db431	0.55353075
244	0xbec0f0f2	-0.37683827
245	0xbeec7e32	-0.4619003
246	0xbf073d88	-0.52828264
247	0xbbd2d430	-0.006433986
248	0xbce886a4	-0.028384514
249	0xbf0c236b	-0.54741544
250	0x3d294eac	0.041334793
251	0xbee08e91	-0.4385877
252	0xbef07170	-0.46961546
253	0xbe8c8ba7	-0.27450296
254	0xbed9c6a1	-0.42534354
255	0x3f1d9583	0.6155626

linear2.bias f4 [256]
0	0xbec8ab6b	-0.39193282
1	0x3ec05110	0.37561846
2	0xc02ee3a4	-2.732644
3	0xbf111642	-0.5667459
4	0xbf3934c0	-0.72346115
5	0xbedde7da	-0.4334095
6	0xc0c86d54	-6.2633457
7	0xbf0ff2af	-0.5622968
8	0xc08ed5b3	-4.4635863
9	0xbf1c9400	-0.6116333
10	0xbee3c279	-0.44484308
11	0x4178fab9	15.561212
12	0xbf0c617f	-0.5483627
13	0xbfb60e39	-1.422309
14	0xc047242f	-3.1115835
15	0x40963d9b	4.69502
16	0xc013c9eb	-2.309199
17	0x41c8f5b3	25.11997
18	0xbeee66c8	-0.4656279
19	0x40659435	3.5871708
20	0xbeec360a	-0.4613498
21	0xc01ef89b	-2.4839237
22	0xc10a2091	-8.632951
23	0xbf2334d4	-0.63752484
24	0xbebaa844	-0.364565
25	0xbfd89033	-1.6919006
26	0xc07cead3	-3.9518325
27	0xbf175962	-0.5912076
28	0x4017272b	2.3617656
29	0xbed15471	-0.40884736
30	0xc17649b2	-15.392992
31	0xbfe8b9df	-1.8181723
32	0xc004c7e7	-2.074701
33	0xbee62d57	-0.44956467
34	0xbef237b9	-0.47308138
35	0xbf2d3b25	-0.6766837
36	0xbeffe7c1	-0.49981502
37	0xc02e9eab	-2.7284343
38	0xc06ddda4	-3.7166529
39	0xc0642b7b	-3.5651538
40	0xbee044fb	-0.43802628
41	0xbee0a502	-0.4387589
42	0xbf0caa54	-0.549474
43	0x411350f3	9.207263
44	0xc08730ff	-4.224731
45	0xbf0fe7df	-0.5621318
46	0xbedaba35	-0.4272019
47	0xbfc464d9	-1.5343276
48	0xc04bcff0	-3.1845665
49	0xc009abf0	-2.1511192
50	0xbfa36a83	-1.276688
51	0xbf2140de	-0.62989604
52	0xbebd8ab5	-0.37019888
53	0x41868eed	16.819788
54	0xc0d619e3	-6.69066
55	0xbf0cdfef	-0.55029196
56	0xc02c3616	-2.6908011
57	0x40efbbf4	7.4916935
58	0xc04d0c1b	-3.2038639
59	0xc01d3507	-2.4563615
60	0x3faec412	1.3653586
61	0xc055913f	-3.33699
62	0xbf0fa90a	-0.5611731
63	0xbfc2bba3	-1.5213512
64	0xc00badba	-2.1824784
65	0xc0c26011	-6.074227
66	0xc01002b1	-2.2501643
67	0xc031d811	-2.7788126
68	0xbee8aaa6	-0.45442694
69	0xbfba1407	-1.4537362
70	0x418585dd	16.690363
71	0x3f668b11	0.9005595
72	0xbefd3c4c	-0.49460065
73	0xbef5cd7d	-0.48008338
74	0xbfd4fb90	-1.6639271
75	0xc01b6f62	-2.4286733
76	0xc0abc956	-5.368327
77	0xbf1dc5ca	-0.6162993
78	0xbf0e6222	-0.5561849
79	0xbeef1e34	-0.4670273
80	0xc082e91e	-4.0909567
81	0xbf0c11bf	-0.5471458
82	0xbf81ae9e	-1.0131414
83	0xbed9cc0f	-0.42538497
84	0x3a95a01e	0.0011415516
85	0xbf21fd4a	-0.63277113
86	0xc020edcd	-2.5145142
87	0xc00ffc86	-2.2497878
88	0xbfa5ceb7	-1.2953709
89	0xbfc6d981	-1.5535127
90	0xc05d028f	-3.4532812
91	0xbfbf6fc9	-1.4955989
92	0xc10b56f8	-8.708733
93	0xbf77a93e	-0.9674262
94	0xbfc99714	-1.574923
95	0xbfed4653	-1.8537086
96	0xc08d0927	-4.407367
97	0xc0475ae9	-3.1149237
98	0xbefccb6e	-0.49373955
99	0xbeded3d4	-0.43520987
100	0xc02ef9bd	-2.7339928
101	0xbfc7f0fd	-1.5620419
102	0xc035882c	-2.8364363
103	0xc02ef259	-2.7335417
104	0xbf24950f	-0.64289945
105	0xc009b1da	-2.1514802
106	0xbfd20a6c	-1.640943
107	0xc001209e	-2.0176158
108	0xbfd539e8	-1.6658297
109	0xc090b0b5	-4.5215707
110	0xbf1caf8e	-0.61205375
111	0xc059b5f2	-3.40173
112	0xbf1c19d3	-0.60976905
113	0xbf245293	-0.641885
114	0xc0278036	-2.6172004
115	0xbf0f38aa	-0.5594584
116	0xc0ab6b3a	-5.356839
117	0xbf236a9b	-0.6383454
118	0xc026d75e	-2.606895
119	0xbf954549	-1.1661769
120	0xbe957694	-0.2919203
121	0xbfc891bb	-1.5669473
122	0xbefc7d1d	-0.49314204
123	0xbef997b6	-0.4874856
124	0xc016b0ed	-2.3545487
125	0x4053694a	3.3033013
126	0xc0e61fa2	-7.1913614
127	0x3fbb8e95	1.4652888
128	0xc011d9a7	-2.2789094
129	0xc02b528b	-2.676913
130	0xc04b83c7	-3.179918
131	0xc0086e51	-2.1317332
132	0xbfbcf9b1	-1.47637
133	0x4037e5cf	2.8734014
134	0xbff4f4da	-1.9137223
135	0xbf40ce32	-0.7531463
136	0xbf6a8abd	-0.9161795
137	0xbfad64bd	-1.3546368
138	0xc04f1dce	-3.2361941
139	0xbeeec928	-0.46637845
140	0xc080df73	-4.0272765
141	0xbf4b8359	-0.79497296
142	0xbfc07166	-1.5034606
143	0xc04ecb7d	-3.23117
144	0xc0ae5aec	-5.448599
145	0xbefd8291	-0.49513677
146	0xc05c2f01	-3.440369
147	0xc0b5a758	-5.6766777
148	0xc01ea921	-2.4790728
149	0xc086e3aa	-4.215291
150	0xc0298ba3	-2.6491477
151	0xc02a5683	-2.6615303
152	0xc10e3839	-8.888726
153	0xbfccc574	-1.5997758
154	0xc0f1c39c	-7.555128
155	0x40e42c8c	7.130438
156	0xbfd6307b	-1.6733545
157	0xbf16308b	-0.5866782
158	0x4093c8eb	4.618276
159	0xbf0a78a2	-0.5409032
160	0xc00453f3	-2.0676239
161	0xbecb7c99	-0.39743498
162	0xc00f0624	-2.2347498
163	0x411d94d3	9.848834
164	0xc02b4c72	-2.6765409
165	0xbf1a66ee	-0.6031331
166	0xc0a0764b	-5.01444
167	0xbf154fa7	-0.58324665
168	0xbfe054e6	-1.7525909
169	0xc00c3c92	-2.191197
170	0xc0ed3752	-7.413003
171	0xbea94d01	-0.33066562
172	0xbf2943df	-0.6611919
173	0xbfc2ce7f	-1.5219268
174	0xbf17fedc	-0.5937326
175	0x3fc39c7c	1.528213
176	0xbf1f6723	-0.6226675
177	0xc100c953	-8.049151
178	0xbfaede2c	-1.3661551
179	0xc04e0cd8	-3.219534
180	0xbf2816ae	-0.65659606
181	0xbf171f47	-0.590321
182	0x4061a148	3.5254688
183	0xc03297e5	-2.790521
184	0xc05061d7	-3.2559717
185	0xbf89a7e2	-1.0754359
186	0xc00d7546	-2.2102828
187	0xbed5d7eb	-0.41766295
188	0xbfd35aac	-1.6512046
189	0xbf213b27	-0.62980884
190	0xc09516c1	-4.6590276
191	0xc00435ce	-2.065784
192	0x405a1582	3.4075627
193	0xc069f3a9	-3.6554968
194	0xbecac961	-0.39606765
195	0xc08ab2a6	-4.3343077
196	0xbf279782	-0.6546556
197	0xbf46ddde	-0.7768229
198	0xc12fddb8	-10.991631
199	0xc030f2c8	-2.7648182
200	0xbf1ad6e6	-0.6048416
201	0xbef9789c	-0.4872483
202	0xc0514dc7	-3.2703722
203	0xc080e8d0	-4.0284195
204	0xc0fb701c	-7.857435
205	0xc016a15e	-2.353599
206	0xc004ecae	-2.0769458
207	0xbf81a76c	-1.0129218
208	0xc1698742	-14.595522
209	0xbe97983e	-0.2960834
210	0xc0c61b4f	-6.1908336
211	0xc10a063c	-8.626522
212	0xc04a24ce	-3.1584964
213	0xc04e4f4b	-3.2235897
214	0xc0117650	-2.2728462
215	0xbfbed547	-1.4908837
216	0xc19cb2aa	-19.587238
217	0x406577c7	3.5854356
218	0xbf1f3b40	-0.62199783
219	0x41056158	8.336266
220	0xbf31a874	-0.69397664
221	0xbef5ff49	-0.4804633
222	0xbed03d2a	-0.40671664
223	0xc0624583	-3.5354927
224	0xc00d8847	-2.2114427
225	0xbf84d189	-1.0376445
226	0xc0026536	-2.0374274
227	0xbf0abfbb	-0.5419881
228	0xc025a401	-2.588135
229	0xbed646da	-0.4185093
230	0xbfe25b69	-1.7684146
231	0xc02e2f1d	-2.7216256
232	0xbefad407	-0.4898989
233	0xc09a843e	-4.828643
234	0xc0445fe5	-3.068353
235	0x406f8e3a	3.7430558
236	0xc06d3d68	-3.706873
237	0xbef8262e	-0.4846663
238	0xbe8a0d83	-0.26963434
239	0xbf1c6823	-0.610964
240	0xbfdb319d	-1.7124516
241	0xc0498365	-3.1486447
242	0xbee2b13e	-0.4427585
243	0xbfc54f6a	-1.541486
244	0xbed16d7b	-0.4090384
245	0xc06597ac	-3.5873823
246	0xc095b65c	-4.6785107
247	0xbd9c17d3	-0.076217316
248	0xbf103bd2	-0.5634128
249	0xc02dc607	-2.7152116
250	0x3fe12be8	1.7591524
251	0xbf244b7a	-0.6417767
252	0xbf99c7ae	-1.2014062
253	0xbed060c2	-0.4069882
254	0xbfae4565	-1.3614928
255	0x40ad9714	5.424692

linear3.weight f4 [4, 256]
0	0xbed6d2e4	-0.41957772
1	0x3f8e57dc	1.1120563
2	0x3ffaa6cd	1.9582154
3	0xbc9b9aac	-0.018994652
4	0x3e6dafb1	0.23211552
5	0xbed7a92c	-0.42121255
6	0x3f0eaca1	0.5573216
7	0xbd4aac28	-0.049480587
8	0xc043f3a4	-3.0617456
9	0x3f060a89	0.52359825
10	0xbec2d1b3	-0.38050613
11	0x40fd2de4	7.911852
12	0x3f1b75af	0.60726446
13	0xbf56fffb	-0.83984345
14	0x3f86e16e	1.0537546
15	0xc1513571	-13.075547
16	0x3ec40015	0.38281313
17	0x418db1bc	17.711784
18	0xbee4ae4f	-0.44664237
19	0xc0a65d5f	-5.198898
20	0xbec33577	-0.38126728
21	0x3f7f995b	0.99843377
22	0x40982533	4.754541
23	0xbe91f7fd	-0.28509513
24	0xbeaaf5b6	-0.33390588
25	0xbf6314e2	-0.8870374
26	0xbf3fb608	-0.7488713
27	0xbe77dfec	-0.24206513
28	0xc0ca3338	-6.3187523
29	0xbea46d09	-0.32114437
30	0xc12c788f	-10.779433
31	0xc0706718	-3.7562923
32	0x3e3a4fd6	0.18194517
33	0xbebaff83	-0.36523065
34	0xbef80a1e	-0.4844522
35	0x3f172cca	0.5905272
36	0xbeed58d5	-0.46356836
37	0xbeac20d7	-0.33618805
38	0x3f29ee8e	0.6637963
39	0xc04aa1b9	-3.1661208
40	0xbed52e9d	-0.41637126
41	0xbec63157	-0.38709518
42	0xbebbfd9f	-0.36716935
43	0xc12cfbfb	-10.811519
44	0x3fbd675b	1.4797167
45	0xbef42239	-0.4768236
46	0xbebee16f	-0.37281367
47	0xbf215799	-0.6302429
48	0x3f0a81d2	0.5410434
49	0xbf2da353	-0.6782734
50	0x3edea315	0.43483797
51	0x3f12e49c	0.5738008
52	0xbeb0d190	-0.34534883
53	0x3fda84d3	1.7071785
54	0x410c6fbc	8.777279
55	0x3f19f263	0.6013548
56	0x3f4a02b7	0.7891039
57	0x4171edaf	15.120528
58	0xbf0cb4ac	-0.54963183
59	0x3e999ade	0.30000967
60	0xc06f3309	-3.73749
61	0x3f1a184d	0.6019333
62	0xbc700c20	-0.014651328
63	0xbeaebcae	-0.34128326
64	0xbf9c9f5e	-1.2236135
65	0xc0342fd3	-2.815419
66	0x4034d7f1	2.82568
67	0x3e2c0315	0.1679805
68	0xbece9bbc	-0.4035319
69	0xbe8b3073	-0.271854
70	0x4114fdb6	9.311941
71	0xc094c5e1	-4.649155
72	0xbf0a55f3	-0.540374
73	0xbea3ea2e	-0.32014602
74	0xbee31534	-0.44352114
75	0x3d06fe2a	0.032957233
76	0xc0229ffb	-2.5410144
77	0x3f121859	0.570684
78	0xbef15f94	-0.47143233
79	0xbec69759	-0.38787344
80	0xc056a2c6	-3.353685
81	0xbee915c4	-0.45524418
82	0x3ecb0da9	0.3965886
83	0xbec61039	-0.38684252
84	0xbe005083	-0.12530713
85	0x3f0c9883	0.54920214
86	0x40062b07	2.0963762
87	0x3ecf34aa	0.40469867
88	0x3f23d4ae	0.639964
89	0xbec08f76	-0.37609452
90	0x3f30a5d2	0.6900302
91	0xbf6a26f7	-0.91465706
92	0xc09351c4	-4.603731
93	0xbe16a392	-0.14710835
94	0xbe656e83	-0.22405438
95	0x3c244318	0.010025762
96	0x4011aae7	2.276056
97	0xc00a6b87	-2.162813
98	0x3ce1c5a0	0.027560055
99	0xbebc4034	-0.36767733
100	0x3e2ba3a9	0.1676165
101	0xbd40f638	-0.047109812
102	0x3e1a80a9	0.15088142
103	0x3e64732b	0.22309558
104	0x3f11fddf	0.57028
105	0x3f20699a	0.62661135
106	0xbef9865a	-0.48735315
107	0xbe4f57f0	-0.20248389
108	0xbea3044b	-0.31839213
109	0xc08282ef	-4.078483
110	0xbe9e3e9b	-0.3090714
111	0x3f830aef	1.0237712
112	0x3f202ae5	0.6256545
113	0x3f134d1c	0.57539535
114	0xc00872dd	-2.1320107
115	0xbe8da53d	-0.2766513
116	0x4048f55f	3.1399763
117	0xbea5228d	-0.32252923
118	0xc0137848	-2.3042164
119	0x3f88a527	1.06754
120	0xbf11fdba	-0.5702778
121	0xbfeb6afc	-1.8392024
122	0xbee84d57	-0.45371506
123	0xbed5f841	-0.41790965
124	0xbd7f4bfa	-0.062328316
125	0xc00bebaf	-2.18626
126	0x40cec032	6.4609613
127	0x4075dca8	3.8415928
128	0x3ec559e7	0.38545153
129	0x3f218a32	0.63101494
130	0xc0032953	-2.0493972
131	0x3e8152da	0.25258523
132	0xbe8ae60c	-0.27128637
133	0x406515ed	3.5794632
134	0xc1157869	-9.341897
135	0xbeb1b4a2	-0.34708124
136	0xbee67798	-0.45013118
137	0x3e92a0d4	0.28638327
138	0x3f1c8e9e	0.61155117
139	0xc0d1a81a	-6.55177
140	0xc04fefaf	-3.2490041
141	0xbec3a8d2	-0.38214737
142	0xbf2e71f8	-0.6814265
143	0xbf0b61fa	-0.54446375
144	0x4087b6ad	4.2410493
145	0xbedeed3e	-0.43540376
146	0x3f993761	1.1970025
147	0x3f7d91a8	0.9905038
148	0xbf5926e2	-0.84824955
149	0x400bab0b	2.1823146
150	0xc01354fd	-2.3020623
151	0x3fe27765	1.7692686
152	0xc0006352	-2.006062
153	0x3ec2f0d4	0.38074362
154	0x4051b7e4	3.2768488
155	0x4129c1cc	10.609814
156	0x3cc1cef4	0.023658253
157	0x3f1c5a6e	0.61075485
158	0xc15d57a9	-13.833901
159	0x3f199161	0.59987456
160	0x3f75ebf3	0.96063155
161	0xbedc3f4b	-0.4301704
162	0x3e2fdd4a	0.17174259
163	0x406c5f3f	3.6933134
164	0x3fb29ef9	1.3954765
165	0xbf03e4d6	-0.5152105
166	0x3ff6cf08	1.9281931
167	0xbeac4665	-0.33647457
168	0x3ff2af82	1.8959811
169	0xc0389903	-2.884339
170	0xc1063996	-8.389059
171	0xbebfde54	-0.3747431
172	0x3f1bad35	0.6081117
173	0xbf6e319b	-0.9304444
174	0x3f1512e9	0.5823198
175	0x4087a1d9	4.238507
176	0xbec20aa1	-0.37898734
177	0x40921bc5	4.56589
178	0xbeb2d82b	-0.34930548
179	0xc003919f	-2.055763
180	0xbecbf89f	-0.3983812
181	0xbe891ca0	-0.26779652
182	0x3ef9854d	0.48734513
183	0x3eccc196	0.39991444
184	0x3eee71e5	0.4657127
185	0x3e867eb7	0.2626855
186	0x3d96a683	0.07355978
187	0xbe9ecb56	-0.31014508
188	0x3d623e14	0.055234984
189	0xbea2f468	-0.31827092
190	0x40182369	2.3771613
191	0x3db068b4	0.086137205
192	0x3d181589	0.037129913
193	0x3f36619c	0.7124269
194	0xbebf3268	-0.37343144
195	0xbf18bed2	-0.5966617
196	0xbeb4829c	-0.35255897
197	0xbed2f38e	-0.41201442
198	0x404f464a	3.238665
199	0xbf65cb92	-0.8976375
200	0xbef5990f	-0.47968337
201	0xbec30342	-0.38088423
202	0x3f1baf0f	0.60813993
203	0xbfdd173d	-1.7272717
204	0x4093fa45	4.6243005
205	0x3fd9281d	1.6965367
206	0xbf00975c	-0.50230956
207	0x3f16e905	0.5894931
208	0x411b2f45	9.69904
209	0xbf0e9a91	-0.557046
210	0x413594a8	11.348793
211	0xbfd87a71	-1.6912366
212	0x3e8c0e56	0.27354687
213	0x3e84e206	0.25953692
214	0x3f3c38a5	0.7352393
215	0xbeaeebe7	-0.34164354
216	0xc1446e47	-12.276923
217	0x4076fdc7	3.8592393
218	0x3f15fbf8	0.585876
219	0xc13dfda6	-11.874426
220	0xbea2db0d	-0.31807747
221	0x3e1a1f42	0.15050986
222	0xbebb4115	-0.3657309
223	0x3fec8ed5	1.8481089
224	0x3ec8308c	0.39099538
225	0xbf9fa445	-1.2472006
226	0xbf4c68f9	-0.79847676
227	0xbefc66e9	-0.49297264
228	0x3e44f4c1	0.19233991
229	0xbec21c78	-0.37912345
230	0x3ff5f37d	1.9214932
231	0xbeb6f410	-0.3573308
232	0x3d45320a	0.048143424
233	0xc12c14b7	-10.755057
234	0x3ea2b386	0.3177759
235	0x402f2a41	2.736954
236	0x3f6c5cba	0.9232899
237	0xc0e71bd5	-7.2221475
238	0xbef3404d	-0.47509995
239	0xbeca5fd0	-0.39526224
240	0x3c234bc8	0.009966798
241	0x40283a17	2.6285455
242	0xbec5e45e	-0.38650793
243	0x3f3ec5ee	0.74520767
244	0xbed504f0	-0.4160533
245	0x3ff4ac92	1.9115164
246	0xc0481c4c	-3.126727
247	0xbf6f10a0	-0.9338474
248	0xbeafc221	-0.34327796
249	0x3f80b182	1.0054171
250	0xc0e0533e	-7.0101614
251	0xbebad629	-0.36491516
252	0x3e904c97	0.28183433
253	0xbebec579	-0.37260035
254	0x3f500b23	0.81266993
255	0xc17137e9	-15.07615

linear3.bias f4 [4]
0	0x404c611c	3.193427
1	0x4121fe27	10.124549
2	0xc0bb62ad	-5.8557954
3	0xc0974623	-4.7273116
